DeepLearning/Labs/Test/Test1/Test1_model.pth (torch, 12528 bytes, 6 tensors)

fc1.weight f4 [64, 3]
0.043313377 0.2729323 -0.38784775 0.644852 0.18368647 -0.18396305 0.19919433 -0.51861423
-0.3463921 -0.11526245 -0.27245864 -0.44726858 -0.21086352 0.44680694 0.60453576 -0.22392891
-0.5038731 -0.4793947 -0.48791888 -0.22732952 0.6338395 0.086300954 0.031131396 -0.6212987
0.121333346 0.010286283 0.28682628 0.058567163 0.46147683 0.52508044 0.39858073 -0.30532768
-0.53102225 0.21681236 0.570646 -0.056142855 0.3329461 -0.60078824 -0.34745932 0.38904956
-0.34294248 0.45119354 0.4261489 0.029096609 0.34065938 -0.35373932 0.054412246 0.4324908
-0.4146509 0.13325231 0.19898964 0.10655839 -0.57744503 0.4951515 0.32444566 0.2896521
-0.22106211 0.60540956 0.13246231 -0.2907822 0.69263583 0.5019591 -0.36457536 0.08288858
-0.22070418 0.50470513 0.46964228 0.369262 0.48545188 0.110235 0.07095821 0.28555652
0.25245053 0.24970205 -0.058716755 -0.20518328 0.26676917 0.42794245 0.43280885 0.050529994
0.25763842 0.37096712 -0.374409 -0.6345239 -0.30171105 -0.5366382 -0.39116684 0.28419012
-0.6319986 -0.27063203 0.5561178 0.19637834 -0.21917942 -0.55336475 -0.25102818 0.06692439
-0.24381585 0.2573014 0.12591694 -0.62427753 -0.5605948 0.004722591 -0.24008141 0.24109292
0.21287279 -0.61041915 -0.53309333 0.33273244 0.15118699 0.3786176 0.6265146 -0.19782744
-0.3250207 -0.011106407 -0.1261001 -0.45893648 -0.33446908 0.4596278 0.41705227 -0.537316
-0.16862054 -0.19898891 -0.07002022 -0.502074 -0.38588122 -0.59235984 0.30268368 -0.47850943
-0.40874764 0.5013137 0.24192359 0.24464883 0.26788393 0.093500316 0.26021525 -0.4253717
0.37014845 -0.50093055 0.34198642 0.2591967 0.33497903 -0.51114404 -0.28301764 0.5867229
-0.43524373 0.3456268 0.50920504 -0.38461846 -0.09795453 -0.62596697 -0.40816572 -0.69927126
-0.050351035 0.17124113 -0.17410003 0.3455383 -0.45347962 -0.11731723 0.07246897 0.39211813
0.37285838 0.32572883 0.6676538 -0.5032479 0.2615532 -0.26388592 0.51829314 0.07768161
0.53806967 -0.4518155 0.3573491 -0.056483384 -0.5032638 0.05802984 -0.54843754 -0.15404718
-0.56926996 0.7640319 0.21969871 -0.29663014 0.23361343 0.5354989 0.5503441 0.35048622
-0.2967725 0.39436352 0.011657987 0.16802338 -0.5655291 0.39698303 0.40682846 0.0042378083
00000000: 5e69 313d c8bd 8b3e fb93 c6be 0515 253f
00000010: 4e18 3c3e cf60 3cbe 99f9 4b3e e7c3 04bf
00000020: 4e5a b1be b80e ecbd b37f 8bbe 6300 e5be
00000030: 9bec 57be e1c3 e43e dbc2 1a3f 9f4d 65be
00000040: d4fd 00bf 3973 f5be 81d0 f9be 12c9 68be
00000050: 4e43 223f 8ebe b03d 4507 ff3c 6e0d 1fbf
00000060: 9e7d f83d cc87 283c e5da 923e 1fe4 6f3d
00000070: b146 ec3e ac6b 063f c612 cc3e e953 9cbe
00000080: 13f1 07bf 0f04 5e3e db15 123f 0df6 65bd
00000090: e977 aa3e 42cd 19bf 30e6 b1be 8131 c73e
000000a0: 2896 afbe d702 e73e 3030 da3e 035c ee3c
000000b0: e86a ae3e 521d b5be 60df 5e3d 6f6f dd3e
000000c0: 1f4d d4be 4b73 083e f1c3 4b3e 493b da3d
000000d0: 70d3 13bf 7f84 fd3e be1d a63e 484d 943e
000000e0: 1b5e 62be 1ffc 1a3f 33a4 073e 68e1 94be
000000f0: 9550 313f 6480 003f 9fa9 babe 7dc1 a93d
00000100: 4700 62be 5b34 013f f474 f03e e90f bd3e
00000110: 268d f83e e3c2 e13d 8a52 913d 7734 923e
00000120: 3241 813e e5b1 7f3e fb80 70bd 911b 52be
00000130: f895 883e 461b db3e 1f99 dd3e 8af8 4e3d
00000140: 2fe9 833e 67ef bd3e 89b2 bfbe 2970 22bf
00000150: df79 9abe 1f61 09bf 0547 c8be 5e81 913e
00000160: a9ca 21bf 4890 8abe bc5d 0e3f 6717 493e
00000170: 9270 60be 50a9 0dbf c486 80be a80f 893d
00000180: ddaa 79be 02bd 833e 5ff0 003e a7d0 1fbf
00000190: 2483 0fbf f7bf 9a3b e7d7 75be 10e1 763e
000001a0: 53fb 593e 6e44 1cbf ce78 08bf e85b aa3e
000001b0: c3d0 1a3e 2bda c13e 4363 203f 4793 4abe
000001c0: 1d69 a6be a6f7 35bc 6220 01be b9f9 eabe
000001d0: 883f abbe 5654 eb3e e087 d53e 8b8d 09bf
000001e0: ddaa 2cbe c0c3 4bbe c366 8fbd ec87 00bf
000001f0: 3992 c5be e5a4 17bf 5bf9 9a3e 30ff f4be
00000200: 5f47 d1be 1856 003f d1ba 773e 3985 7a3e
00000210: 1528 893e 187d bf3d ef3a 853e 52ca d9be
00000220: 1984 bd3e fc3c 00bf d818 af3e 6eb5 843e
00000230: 5f82 ab3e 56da 02bf b0e7 90be 7933 163f
00000240: 44d8 debe fff5 b03e 435b 023f b6ec c4be
00000250: 629c c8bd 5f3f 20bf 19fb d0be 7103 33bf
00000260: e33c 4ebd d659 2f3e 4747 32be 65ea b03e
00000270: 7b2e e8be 0444 f0bd 9d6a 943d b5c3 c83e
00000280: 4be7 be3e eec5 a63e 5ceb 2a3f dbd4 00bf
00000290: 4dea 853e 0e1c 87be dcae 043f 8917 9f3d
000002a0: efbe 093f 5c54 e7be 76f6 b63e 1f5b 67bd
000002b0: e5d5 00bf b3b0 6d3d 6766 0cbf 8bbe 1dbe
000002c0: adbb 11bf 9897 433f b3f8 603e e8df 97be
000002d0: 5c38 6f3e 7516 093f 5ae3 0c3f ee72 b33e
000002e0: 91f2 97be 04ea c93e 2401 3f3c 520e 2c3e
000002f0: 84c6 10bf 5c41 cb3e d24b d03e 50dd 8a3b

fc1.bias f4 [64]
0.026490996 -1.0842459 0.56591654 -0.3790705 -0.35437787 0.47717726 -0.08994826 0.15345734
-0.43262634 -0.2970827 0.0005883081 -0.8256262 0.29091382 1.0847709 0.34350535 0.9826661
0.2424192 -0.44280913 -0.7299991 -0.4985401 -0.16483809 0.867039 -0.5381311 1.0275279
-0.5570759 0.2998658 -0.6632074 -0.32406098 0.3510407 0.030545037 -0.8230095 -0.5254947
1.0750272 -0.4240733 0.5181309 0.02851228 0.42293167 0.62234503 -0.38298273 0.008945714
0.11764769 0.32086432 0.49099132 -0.23457491 -0.56833905 0.14180239 0.7665494 0.78720343
0.21925932 0.39597207 0.37611485 0.89479524 0.5429606 0.6390885 -0.5776215 1.0296005
0.53585553 0.2772996 0.045895517 -0.9583234 -0.5734035 -0.30138683 0.063597105 -0.55812746
00000000: a503 d93c 92c8 8abf e8df 103f 8715 c2be
00000010: 0471 b5be 9450 f43e cb36 b8bd ec23 1d3e
00000020: 3381 ddbe 391b 98be b038 1a3a 3d5c 53bf
00000030: a8f2 943e c6d9 8a3f efdf af3e 0190 7b3f
00000040: bd3c 783e e1b7 e2be 39e1 3abf a640 ffbe
00000050: 51cb 28be 45f6 5d3f f6c2 09bf 0986 833f
00000060: 879c 0ebf 0388 993e f6c7 29bf 52eb a5be
00000070: 9bbb b33e 9639 fa3c c0b0 52bf d286 06bf
00000080: 7e9a 893f 2320 d9be 3aa4 043f 9692 e93c
00000090: 808a d83e 0152 1f3f 5016 c4be 0b91 123c
000000a0: 46f1 f03d 5448 a43e 3763 fb3e 6834 70be
000000b0: ab7e 11bf a534 113e 953c 443f 2a86 493f
000000c0: 8485 603e dabc ca3e 2092 c03e 4d11 653f
000000d0: 77ff 0a3f 4e9b 233f 01df 13bf f3c9 833f
000000e0: d42d 093f 37fa 8d3e f0fc 3b3d af54 75bf
000000f0: 92ca 12bf 604f 9abe 333f 823d 71e1 0ebf

fc2.weight f4 [32, 64]
0.00555543 0.10127047 0.011138826 0.06864264 0.010111898 -0.0553538 0.11325842 -0.054697543
0.033061013 0.04341218 0.05121173 -0.014227256 0.026768912 -0.0038522226 0.07168096 0.09915118
0.005692947 0.0057682004 -0.10543153 0.12401959 -0.0102835 -0.06783669 -0.07792674 -0.055125058
0.057668343 -0.06614174 0.014457315 -0.10373068 -0.02246366 -0.076243505 -0.07817289 -0.040894583
-0.11542287 0.019362222 0.07828157 0.11165235 -0.058659256 0.069978416 -0.07308783 -0.025777563
-0.10547452 -0.0970317 -0.1064854 0.026689366 -0.07041176 -0.01951928 -0.02884458 0.033667587
-0.08208071 0.018406501 -0.00040316654 -0.10958426 -0.08616764 0.033783957 -0.05843386 -0.07514365
0.04490292 -0.045529105 0.1141606 -0.0933011 0.034970626 0.009083733 -0.015641842 -0.12194541
-0.014827993 -0.09876293 0.13724396 0.12624188 -0.08793904 0.010207564 0.11832192 0.055872492
-0.10037693 0.050138194 0.15083502 0.014587297 0.06530276 -0.104439445 -0.0033414788 -0.053470455
0.5655577 0.012903956 -0.013869708 0.11457493 0.097297646 -0.00014096446 0.056377634 0.099364586
0.064805955 0.08687493 0.09644186 0.24302673 0.14930186 0.03677441 0.022611378 0.20516056
0.16239691 0.18675677 0.04695615 0.22310102 -0.07784192 0.20378502 0.21949023 -0.06546549
0.22042868 0.21782608 0.1555254 0.01301741 0.010992632 0.021025253 -0.0869377 0.018792918
-0.059954822 0.2255216 0.22050068 0.10738035 0.09520279 -0.12123409 0.06314967 -0.021087093
-0.13672733 0.1685379 -0.0078046354 0.080416344 0.010612237 -0.11081222 0.07805684 0.10034163
-0.016014576 0.06891502 -0.042117313 0.04754415 0.1769419 -0.08632377 0.019798763 0.093952894
0.14618975 0.1693516 -0.0029511303 0.14077954 -0.093299836 0.13749966 -0.0108527355 0.075327255
-0.08511363 -0.3806203 -0.20416106 -0.13203545 0.15867296 0.07841564 0.11150455 0.14016636
0.009848011 -0.061842583 0.07351205 0.030885637 0.020098194 -0.1029761 0.0023800407 -0.12257998
0.058092825 -0.09565072 0.06688365 -0.11508119 0.12288361 -0.034672823 -0.051514387 0.15790825
-0.11928359 -0.08938448 0.014160112 -0.0040459903 -0.03612871 -0.013781294 -0.048074514 -0.089971386
0.06903515 -0.037371084 0.08529058 0.17424928 -0.066141985 0.02298775 -0.042638447 0.14279279
0.13785803 0.04898547 -0.025231272 0.17996472 0.062460795 0.1353495 -0.11841279 0.08840024
-0.040462855 -0.06601981 0.16736117 -0.0025476213 0.00629231 0.08163809 0.2367944 0.07517599
-0.12246867 -0.10825346 0.1521089 -0.2048731 0.119430415 0.028214486 0.09734735 0.109697275
0.42836776 0.21855113 -0.024742614 -0.34863892 -0.2031742 0.12611139 0.07553881 -0.034218565
-0.16378151 0.017122554 -0.1496965 0.11335045 0.10760093 0.14802314 -0.28195372 0.08284748
0.07080043 -0.05124969 0.1157459 0.10492258 0.01214603 0.09662776 0.05420021 -0.058046356
-0.03435348 0.05796838 0.07419953 0.022627905 -0.06795413 0.07705876 -0.103225835 0.17728461
0.07689492 0.14735231 -0.025780346 0.1072756 0.04962295 0.0629341 -0.22771561 0.15727708
0.05878174 0.073327444 -0.0058474494 -0.102730386 0.039903607 -0.07746984 -0.052681495 -0.01994816
00000000: 530a b63b e466 cf3d 9f7f 363c 8394 8c3d
00000010: 60ac 253c abba 62bd 08f4 e73d 880a 60bd
00000020: fc6a 073d f8d0 313d 64c3 513d 7019 69bc
00000030: 7a4a db3c 9275 7cbb 78cd 923d c60f cb3d
00000040: e78b ba3b 2c03 bd3b 7cec d7bd fcfd fd3d
00000050: 207c 28bc f6ed 8abd 0e98 9fbd d0ca 61bd
00000060: a435 6c3d 5275 87bd 60de 6c3c c070 d4bd
00000070: b605 b8bc 8e25 9cbd 1c19 a0bd 1481 27bd
00000080: d362 ecbd 869d 9e3c 1652 a03d fda9 e43d
00000090: b044 70bd d850 8f3d 12af 95bd 782b d3bc
000000a0: 0603 d8bd 8eb8 c6bd 0415 dabd a8a3 da3c
000000b0: 0a34 90bd e6e6 9fbc 784b ecbc 06e7 093d
000000c0: ee19 a8bd 3bc9 963c 1960 d3b9 b66d e0bd
000000d0: a978 b0bd 0c61 0a3d 5858 6fbd eae4 99bd
000000e0: 20ec 373d ba7c 3abd 08cd e93d a614 bfbd
000000f0: 5c3d 0f3d f0d3 143c 5223 80bc 84be f9bd
00000100: 1cf1 72bc 3844 cabd ae89 0c3e 8d45 013e
00000110: 6219 b4bd a03d 273c c352 f23d 8eda 643d
00000120: 6b92 cdbd b55d 4d3d 7f74 1a3e 8fff 6e3c
00000130: 74bd 853d 59e4 d5bd b6fc 5abb d603 5bbd
00000140: 64c8 103f 1d6b 533c c63d 63bc 43a6 ea3d
00000150: fd43 c73d dccf 13b9 3cec 663d a97f cb3d
00000160: fcb8 843d 7ceb b13d 4f83 c53d 00dc 783e
00000170: 96e2 183e c4a0 163d 7f3b b93c 9c15 523e
00000180: 604b 263e 2b3d 3f3e 1855 403d 9874 643e
00000190: 966b 9fbd 05ad 503e 0cc2 603e c512 86bd
000001a0: 0eb8 613e cd0d 5f3e 0d42 1f3e fa46 553c
000001b0: 711a 343c 273d ac3c 650c b2bd 9bf3 993c
000001c0: 3093 75bd 22ef 663e eeca 613e 3bea db3d
000001d0: aef9 c23d 9449 f8bd 9d54 813d d7be acbc
000001e0: 4002 0cbe 3395 2c3e 07be ffbb 53b1 a43d
000001f0: f3de 2d3c 84f1 e2bd 44dc 9f3d ea7f cd3d
00000200: 0031 83bc 5123 8d3d 3483 2cbd a8bd 423d
00000210: 4230 353e 84ca b0bd 0431 a23c 606a c03d
00000220: c4b2 153e 816a 2d3e c067 41bb 8328 103e
00000230: fc13 bfbd b6cc 0c3e accf 31bc 2d45 9a3d
00000240: 0e50 aebd aae0 c2be 990f 51be 4d34 07be
00000250: 2a7b 223e 6198 a03d 7f5c e43d c587 0f3e
00000260: 8d59 213c a64e 7dbd 7c8d 963d e003 fd3c
00000270: f8a4 a43c 22e5 d2bd 75fa 1b3b 360b fbbd
00000280: bef2 6d3d 86e4 c3bd 4cfa 883d b0af ebbd
00000290: 67aa fb3d 1705 0ebd c000 53bd b3b2 213e
000002a0: f44a f4bd 360f b7bd d0ff 673c 3a94 84bb
000002b0: b3fb 13bd f0ca 61bc c8e9 44bd eb42 b8bd
000002c0: 4d62 8d3d 6c12 19bd d4ac ae3d 676e 323e
000002d0: 7375 87bd ce50 bc3c a7a5 2ebd 4638 123e
000002e0: a82a 0d3e fda4 483d d0b1 cebc ac48 383e
000002f0: e4d6 7f3d 0f99 0a3e 6882 f2bd 2f0b b53d
00000300: 61bc 25bd 6535 87bd ba60 2b3e fef5 26bb
00000310: b92f ce3b df31 a73d 3b7a 723e dff5 993d
00000320: dbd0 fabd fdb3 ddbd 6fc2 1b3e 41ca 51be
00000330: ef97 f43d 1122 e73c 0c5e c73d f7a8 e03d
00000340: 0553 db3e decb 5f3e 06b1 cabc cd80 b2be
00000350: e60c 50be 5823 013e 17b4 9a3d c428 0cbd
00000360: 57b6 27be 9944 8c3c 0a4a 19be 4824 e83d
00000370: e05d dc3d 6193 173e 3d5c 90be f1ab a93d
00000380: d1ff 903d 32eb 51bd 300c ed3d a6e1 d63d
00000390: 2400 473c c6e4 c53d 0a01 5e3d 04c2 6dbd
000003a0: 3cb6 0cbd 4170 6d3d ecf5 973d 285e b93c
000003b0: 892b 8bbd fcd0 9d3d 1168 d3bd 198a 353e
000003c0: 157b 9d3d 86e3 163e 4e31 d3bc 4fb3 db3d
000003d0: 6f41 4b3d 98e3 803d 482e 69be 3e0d 213e
000003e0: 1fc5 703d b32c 963d f69b bfbb 4f64 d2bd
000003f0: f771 233d 82a8 9ebd 8dc8 57bd 536a a3bc

fc2.bias f4 [32]
0.007594207 -0.029105263 -0.055403326 0.23805237 -0.0041643083 0.14917824 0.29246885 0.38097835
-0.008484717 -0.012304763 0.050482392 0.12098016 -0.08969184 0.012393445 -0.3135863 0.17019336
0.06328736 0.25613007 -0.29660347 -0.009357169 0.034541775 0.3708812 -0.02927917 -0.18496943
-0.31020427 0.00041604714 -0.30808878 -0.22909895 0.19192477 0.19173317 0.109647185 -0.038414776
00000000: d3d8 f83b 296e eebc 99ee 62bd 00c4 733e
00000010: c074 88bb 2ec2 183e 7abe 953e 980f c33e
00000020: 7c03 0bbc eb99 49bc a0c6 4e3d 72c4 f73d
00000030: 5bb0 b7bd e00d 4b3c 628e a0be 2b47 2e3e
00000040: ce9c 813d 7b23 833e 69dc 97be d04e 19bc
00000050: ad7b 0d3d 24e4 bd3e dfda efbc a068 3dbe
00000060: 18d3 9ebe e720 da39 d0bd 9dbe ea98 6abe
00000070: ed87 443e b355 443e b48e e03d d058 1dbd

fc3.weight f4 [4, 32]
-0.104176894 0.12230247 -0.05261824 0.10597907 0.17289297 0.0056620757 -0.16980502 -0.12778907
-0.1571546 -0.13786812 -0.26596326 0.051983755 0.04412143 0.011780977 0.17425092 -0.04297238
-0.13906139 0.44111595 -0.03219147 0.0638911 0.20268495 -0.14106852 0.12169122 -0.1999572
-0.31621888 0.17084907 0.045090117 0.07173937 -0.039175957 0.24431951 0.105425805 -0.05393821
0.0024810967 -0.0716774 -0.047555923 0.21433939 -0.06649582 -0.17502958 0.26541167 0.42781267
0.092931256 0.026598029 0.19918947 0.15371753 0.11042783 0.0007867813 -0.41613704 0.27241358
0.107346155 0.59748244 -0.20116632 0.031983107 -0.11089528 0.33689138 -0.03738329 -0.25907853
-0.093823776 -0.29237002 -0.43415752 -0.39561814 0.006776571 -0.27692276 0.1112366 0.03683929
-0.11107371 -0.058842607 0.22705622 -0.22501749 0.1479579 -0.24091783 -0.007815768 0.25669384
-0.033413924 0.018961748 -0.11311729 0.0022944321 0.14978804 -0.10006901 -0.09132347 -0.2551597
0.064597085 -0.7595013 0.07013648 -0.07449748 0.02064843 0.26445732 0.11582078 0.13594347
-0.11007275 -0.069150336 -0.062863186 -0.05276864 0.25708097 0.082858555 -0.10408127 0.046515495
0.090312146 -0.07583742 0.00035003532 -0.0988519 0.14587311 -0.12145189 -0.52565247 -0.49310574
0.12283061 -0.063199155 0.045041848 -0.13481688 -0.060249764 -0.004695028 0.34473518 0.0003456537
-0.14548476 -0.24913129 0.37435713 -0.1287429 -0.22887589 -0.37248692 -0.12718137 0.25103527
0.29509842 -0.1508809 0.46532056 0.23438203 -0.21362615 -0.09916474 0.01213767 0.10040994
00000000: b25a d5bd b879 fa3d 3986 57bd 8e0b d93d
00000010: db0a 313e ef88 b93b 5ee1 2dbe 23db 02be
00000020: 23ed 20be 4d2d 0dbe 562c 88be ebec 543d
00000030: acb8 343d 0005 413c d56e 323e ce03 30bd
00000040: 1c66 0ebe f3d9 e13e 34db 03bd 56d9 823d
00000050: a58c 4f3e 4474 10be 3f39 f93d 95c1 4cbe
00000060: 71e7 a1be 0ff3 2e3e 6ab0 383d 17ec 923d
00000070: f876 20bd e52e 7a3e 7ce9 d73d 50ee 5cbd
00000080: e599 223b 9acb 92bd 00ca 42bd c97b 5b3e
00000090: f62e 88bd f43a 33be 0ae4 873e 430a db3e
000000a0: be52 be3d 1ce4 d93c 53f8 4b3e 2168 1d3e
000000b0: fc27 e23d 0040 4e3a ea0f d5be cb79 8b3e
000000c0: 4dd8 db3d 9cf4 183f 8bfe 4dbe b800 033d
000000d0: 111d e3bd 077d ac3e 381f 19bd f1a5 84be
000000e0: ae26 c0bd 86b1 95be e549 debe 768e cabe
000000f0: ff0d de3b d2c8 8dbe 04d0 e33d cce4 163d
00000100: 9d7a e3bd f204 71bd 6d81 683e fc6a 66be
00000110: 4782 173e 2ab3 76be b50d 00bc 606d 833e
00000120: 0add 08bd ab55 9b3c 0aaa e7bd 2f5e 163b
00000130: 0962 193e fbf0 ccbd cd07 bbbd 4ba4 82be
00000140: 7a4b 843d ad6e 42bf b7a3 8f3d 2392 98bd
00000150: e526 a93c f366 873e 7233 ed3d c434 0b3e
00000160: d26d e1bd b19e 8dbd 6abe 80bd ee23 58bd
00000170: 1ea0 833e bfb1 a93d 9028 d5bd 0887 3e3d
00000180: 93f5 b83d a650 9bbd f284 b739 dd72 cabd
00000190: c35f 153e c5bb f8bd 2991 06bf 5b78 fcbe
000001a0: 9d8e fb3d 8f6e 81bd cd7d 383d 700d 0abe
000001b0: 75c8 76bd c0d8 99bb 2181 b03e db38 b539
000001c0: f5f9 14be 461c 7fbe bdab bf3e 2ed5 03be
000001d0: 715e 6abe 9bb6 bebe d53b 02be b287 803e
000001e0: 2417 973e 8680 1abe 7f3e ee3e d801 703e
000001f0: d0c0 5abe e216 cbbd 14dd 463c baa3 cd3d

fc3.bias f4 [4]
-0.04584132 0.22514383 0.020055836 -0.1474959
00000000: 1cc4 3bbd 1b8c 663e 234c a43c 2a09 17be
