DeepLearning/Labs/Lab3/irisPredict/iris_model_state_dict.pth (torch, 3816 bytes, 8 tensors)

hidden1.weight f4 [5, 4]
000000 ed 85 8b be 58 90 e7 3c 07 e1 19 3f 0e 94 1c 3f
       -0.27250615 0.02826707 0.6010899 0.61163414
000010 12 b0 ff 3d 32 0a 92 3d e0 d9 48 3f ec dc 3f 3e
       0.124847546 0.07130851 0.7845745 0.18736619
000020 fa 5a d5 3d a0 2b 08 bf 09 23 45 3d 21 99 b3 be
       0.10417743 -0.53191566 0.048129115 -0.35077766
000030 a4 67 b2 3b fd 53 42 bf 3f e6 70 3f ba 7a 8b 3f
       0.005444484 -0.75909406 0.9410133 1.0896828
000040 cc 43 8a 3e be 62 49 3e 40 5e e4 3e 18 43 d3 be
       0.2700485 0.19666573 0.44603157 -0.41262126

hidden1.bias f4 [5]
000000 24 aa 53 be 72 12 81 be 5d b2 ed bd a9 30 5f 3f
       -0.20670372 -0.25209385 -0.11606286 0.87183625
000010 b3 68 c0 3e
       0.3757988

hidden2.weight f4 [10, 5]
000000 24 04 25 bf aa c2 1c bf c8 97 ea 3e 85 27 42 be
       -0.64459443 -0.61234534 0.45818925 -0.18960388
000010 ce 2d ae 3e e1 60 a1 be 78 93 af be 66 f4 06 be
       0.3401932 -0.31519225 -0.34292197 -0.13179168
000020 22 9c cf be 40 5f 47 bd 54 af 56 be e1 4e b2 be
       -0.40548807 -0.04867482 -0.2096532 -0.34825805
000030 de 0b aa 3e 06 bf 9b 3e 7d d1 85 3b 80 30 4d 3e
       0.3321218 0.30419177 0.004083811 0.20038033
000040 c0 59 ef 3d 9e 88 1c be 70 07 40 be 98 8b 0a 3e
       0.1168704 -0.1528649 -0.18752837 0.13529813
000050 73 86 dd 3e 29 43 6a be 5a 8b 98 3c 7e be 9a 3e
       0.4326664 -0.22877182 0.018621136 0.3022346
000060 c3 3d 4f 3e 01 c4 79 be 31 ec fd 3e d0 51 5d be
       0.20238404 -0.24391176 0.49594262 -0.2161324
000070 d7 03 a7 bc 80 15 97 3e 14 f2 15 3f 3b 56 02 3f
       -0.020387573 0.2950859 0.58572507 0.5091283
000080 a5 2d 8e be e9 85 af 3f 62 fe f2 bc f8 19 cc 3e
       -0.277692 1.3712741 -0.029662315 0.39863563
000090 62 79 42 3e 3e cf 95 3e 61 67 1e be 38 4c a8 3d
       0.18991616 0.29259676 -0.15469123 0.082176626
0000a0 c0 d7 a2 be 44 6d 9c be 38 bd c4 3e 9e b5 9f 3f
       -0.3180523 -0.30552113 0.38425612 1.24773
0000b0 b2 30 5c 3e 14 a9 3e 3e 0c 63 aa 3d 50 e4 8c be
       0.21502951 0.18619186 0.08319673 -0.2751794
0000c0 e3 3d 04 be db 4a ba 3e
       -0.12914233 0.36385235

hidden2.bias f4 [10]
000000 0b 1a ca 3f 20 3b b0 bd 4d dc e8 be 58 be 81 be
       1.5789198 -0.08605027 -0.45480576 -0.25340533
000010 2d 48 c0 3e 98 03 ad be ae 78 98 bd e5 56 21 bd
       0.37555066 -0.33791804 -0.07444893 -0.03938951
000020 f1 b8 28 3e 91 40 88 be
       0.164768 -0.2661176

hidden3.weight f4 [5, 10]
000000 52 60 0f bf 2e 66 2b 3e d7 dc 8d be 83 7e 33 be
       -0.5600635 0.16738197 -0.2770755 -0.17528729
000010 16 46 e5 3e 51 bf 3f 3e 2d b3 b5 3f ef 0a 42 be
       0.44780034 0.18725325 1.4195305 -0.18949483
000020 d8 a4 6b 3f 43 9e b2 ba 65 6d ff 3e dd e6 90 3e
       0.92048407 -0.0013627488 0.4988815 0.28301135
000030 5a 9e df bd ee 05 18 3e e5 f0 25 3e 57 4b 04 be
       -0.10918875 0.14846012 0.16205175 -0.12919365
000040 20 ae a1 be d2 0f 56 be 7b 42 5f be 42 85 81 be
       -0.3157816 -0.20904472 -0.21802704 -0.2529698
000050 d1 ad 17 3f 34 82 52 be 8b 80 96 be 74 6d ca 3d
       0.592496 -0.20557481 -0.29394946 0.09884158
000060 67 b4 25 3e 34 f0 a9 be 61 55 f8 ba a2 d3 57 be
       0.161821 -0.33191073 -0.0018946343 -0.21076825
000070 53 06 b6 3d de 5e 82 3e 99 c8 a8 3e a2 c3 d2 bd
       0.08887925 0.25463003 0.32965544 -0.1029122
000080 f7 92 92 3d 3e 2d 95 bd d1 66 18 3d 24 43 0f be
       0.071569376 -0.0728402 0.03720743 -0.13990456
000090 54 ea f9 3c 40 e9 f3 bd a7 bc 4c 3f f9 ff 63 3e
       0.030507244 -0.11909723 0.7997536 0.22265615
0000a0 86 4c c4 3f dc b4 da bd 6c 9b 45 bd 28 3b 36 bd
       1.5335853 -0.106790274 -0.048243925 -0.04449001
0000b0 49 7c 9a 3e 59 53 be bc da 08 0a bf bf 3b 89 be
       0.30172947 -0.023233103 -0.53919756 -0.26803395
0000c0 02 2c a2 3d a0 68 48 bd
       0.0791855 -0.048927903

hidden3.bias f4 [5]
000000 eb e1 f9 3d 4e 2a a8 3d 40 e1 f2 3e 56 a9 5a be
       0.122012936 0.08211194 0.47437477 -0.21353659
000010 a8 6a cf 3f
       1.6204424

out.weight f4 [3, 5]
000000 8a e1 9d bf cc 0a c7 3e 8d 13 52 bd 1e e1 f9 be
       -1.2334454 0.38875425 -0.051288176 -0.48804563
000010 de 2c bf 3f bd e9 82 3e 29 5b a1 be 64 c0 ea 3e
       1.4935567 0.25568953 -0.31514862 0.45849907
000020 4b ea 46 3f be 52 62 3e 9d 12 9c 3f da 24 7f 3e
       0.7770125 0.22101876 1.219318 0.24916402
000030 35 85 2f bf 48 f0 28 be bb ac e8 bf
       -0.6856263 -0.1649791 -1.8177713

out.bias f4 [3]
000000 3e 21 42 3f fd b5 d7 3e 95 af 05 bf
       0.75831974 0.42131034 -0.5222104
