DeepLearning/Labs/Lab4/CNN/MNIST_model_weights.pth (torch, 835048 bytes, 16 tensors)

conv1.weight f4 [4, 1, 5, 5]
0.042478386 0.03844274 0.20304795 0.2230727 0.09489686 -0.09575498 -0.1354947 -0.18918319
-0.09201376 -0.032539085 -0.016758027 -0.23601158 -0.3134238 -0.06230531 0.006496941 0.20846997
0.035494592 -0.19011736 -0.1608822 -0.096780315 0.005542943 0.32799575 0.27062038 0.14187106
-0.0010338041 0.06890329 0.018116783 -0.32431695 0.050598167 -0.13030216 0.12813202 0.08401514
-0.057559986 -0.074767835 0.01798645 0.18793334 0.033222683 0.03874286 -0.044276193 -0.05250062
0.1288319 0.09888817 0.047607243 0.11419705 0.039620798 0.15657295 0.30321738 0.12820637
0.08764116 0.018060634 -0.24931456 -0.08783744 -0.16497816 -0.17966299 -0.10284414 -0.1485808
-0.13205005 -0.19991519 -0.07351346 -0.18942454 -0.05514699 -0.025810482 -0.012902698 -0.036185097
0.0372399 -0.052439503 -0.04520646 0.07758759 0.09354758 0.09075795 0.036896717 0.11114965
0.08592433 0.11014347 0.0919687 0.23103414 0.10488771 0.13458624 -0.0070676445 0.07160316
0.2119532 -0.03485109 -0.11628474 -0.1474049 0.02598923 0.052145414 -0.10271397 -0.019856011
0.03956262 0.0663837 0.008175006 -0.12831448 -0.20608425 -0.32601398 0.09067978 -0.018164523
-0.0033525554 -0.007927891 -0.14690283 -0.18350762
00000000: d1fd 2d3d 2276 1d3d cdeb 4f3e 2b6d 643e
00000010: 4959 c23d 301b c4bd 1fbf 0abe 3db9 41be
00000020: b671 bcbd b447 05bd 2148 89bc 05ad 71be
00000030: 1679 a0be da33 7fbd 4be4 d43b 2779 553e
00000040: c762 113d 20ae 42be 4ebe 24be c234 c6bd
00000050: 93a1 b53b 0fef a73e c18e 8a3e a646 113e
00000060: b680 87ba 2b1d 8d3d a669 943c df0c a6be
00000070: 0640 4f3d ee6d 05be 0a35 033e 2110 ac3d
00000080: 05c4 6bbd e11f 99bd 5258 933c 9971 403e
00000090: 8214 083d d5b0 1e3d f45a 35bd e40a 57bd
000000a0: 82ec 033e e285 ca3d d0ff 423d 25e0 e93d
000000b0: 6b49 223d a954 203e 4f3f 9b3e 8848 033e
000000c0: 357d b33d e5f3 933c 514c 7fbe 1ee4 b3bd
000000d0: 09f0 28be 93f9 37be f39f d2bd 9125 18be
000000e0: 2138 07be 91b6 4cbe 3a8e 96bd 82f8 41be
000000f0: cfe1 61bd 8170 d3bc d665 53bc d336 14bd
00000100: de88 183d ceca 56bd 692a 39bd 3ee6 9e3d
00000110: e095 bf3d 4edf b93d 0321 173d 6da2 e33d
00000120: 18f9 af3d e692 e13d 165a bc3d 3794 6c3e
00000130: 5ecf d63d fad0 093e b397 e7bb ada4 923d
00000140: 420a 593e 04c0 0ebd b226 eebd 4ff1 16be
00000150: 5ee7 d43c 6e96 553d b45b d2bd 13a9 a2bc
00000160: 6a0c 223d 2df4 873d 76f0 053c df64 03be
00000170: c007 53be 4eeb a6be 52b6 b93d c4cd 94bc
00000180: 8cb6 5bbb fce3 01bc b26d 16be 6ce9 3bbe

conv1.bias f4 [4]
-0.06850045 -0.07745251 -0.03751895 0.12325995
00000000: f749 8cbd 6c9f 9ebd 78ad 19bd b66f fc3d

conv2.weight f4 [8, 4, 5, 5]
0.0027926762 -0.04311446 -0.09050706 -0.051525187 0.079181604 -0.092322 -0.052986234 0.039962277
-0.042566493 0.113323376 -0.031815544 0.116039105 0.05717555 0.06957951 0.08208119 0.030720197
0.0013238845 0.045889076 0.050815325 -0.05852489 -0.009058978 0.05895746 0.0430459 -0.0034308706
-0.08324802 -0.037715945 -0.02793445 0.041047726 -0.04181123 0.018535137 -0.053825196 0.024297126
0.07287623 0.18778047 0.029119724 0.052263714 0.18306834 0.099902324 -0.00192603 -0.013582698
0.054354932 0.049407918 -0.1219602 -0.1307951 -0.02113182 -0.024374157 -0.10105722 -0.07750165
-0.031618502 0.029769383 0.00874685 -0.019915545 0.105642974 -0.06411028 -0.10410515 -0.04864475
-0.0028934737 0.072756685 -0.07962021 -0.0007474832 -0.057977684 -0.016311051 0.0682445 -0.010648559
0.06163631 0.063873395 0.095986575 -0.012133339 -0.108989276 -0.022907766 0.058537718 0.13003919
0.1098766 -0.04627968 0.008192499 -0.006721862 0.033271436 0.004413624 0.067191385 0.055539373
0.021730406 -0.010863433 -0.05716477 -0.031980474 -0.03142013 -0.025030216 -0.012098985 0.022402886
0.0091298465 -0.09385104 -0.0046739974 -0.032124065 -0.038781326 -0.026691813 -0.05760407 -0.035189807
-0.06799568 -0.11406792 -0.12323715 -0.021955358 -0.05996397 -0.05740618 -0.065818205 0.0021416324
0.045065027 -0.11865803 -0.15976182 -0.11230047 0.02919342 -0.043294713 -0.0075786505 -0.019286776
-0.027557595 -0.022532862 -0.023465507 0.08816604 0.09389853 0.062260143 0.05413726 0.06356494
0.079174876 -0.031239884 0.088208176 0.11704256 0.16875274 -0.11414136 0.001841407 -0.05971021
-0.054631654 -0.023185635 -0.010221817 0.056961343 -0.019672347 -0.060878042 -0.034242205 0.06728457
0.07460125 0.029045597 -0.055994313 -0.044015143 0.047861926 0.0017906927 0.035892937 0.060975887
-0.030292764 0.03152246 0.010877577 0.010476339 -0.019631742 0.07415416 -0.0058138627 -0.044079106
0.03383625 0.12087604 0.112241276 0.01784954 0.009268576 0.01643149 0.0011431644 0.08264777
-0.07418135 -0.09945283 0.0066927574 0.00044835493 0.0010735192 0.05121172 0.017405465 0.042126212
0.020860035 -0.10381063 0.052520487 0.028512415 -0.043073405 -0.06531734 0.060894363 0.15258506
0.062470004 0.04105675 0.043577578 0.027853698 -0.025936889 0.071287036 0.059301227 0.02674379
0.08999443 0.02729247 0.028510336 0.049585134 -0.035508383 0.059867013 -0.05758076 -0.05882928
-0.050033167 0.054497752 -0.052461974 -0.017819045 0.0149311 -0.03886218 -0.07391973 -0.09173616
0.016062383 0.04701445 -0.06727807 0.058026135 -0.041119162 -0.023179276 -0.01984571 0.056193914
0.0119778095 -0.11044688 0.07647652 0.12430439 0.12372007 0.047086015 0.008608074 -0.045647185
0.07445003 0.077638544 0.109428465 0.03158953 -0.020891346 0.0042955927 0.051470924 0.010749578
0.01197015 0.010482766 0.013481946 -0.044665895 -0.016674113 0.03481281 -0.011116072 -0.0106926905
0.085399024 0.08686324 -0.0032939413 -0.039122753 -0.06787782 -0.0562683 0.0029221175 0.0071264617
-0.061525673 -0.064920284 -0.086491734 -0.16975547 -0.16087978 0.04332693 0.0055214046 -0.03621845
-0.062309884 0.026979845 -0.061782636 -0.06667347 0.11524938 0.09911844 0.027692204 -0.061082534
00000000: 5505 373b ca98 30bd c45b b9bd 130c 53bd
00000010: f729 a23d 5113 bdbd 1808 59bd 7caf 233d
00000020: 345a 2ebd 1616 e83d 0451 02bd e9a5 ed3d
00000030: e930 6a3d b47f 8e3d 2f1a a83d eca8 fb3c
00000040: 3186 ad3a 2ff6 3b3d bb23 503d ccb7 6fbd
00000050: 1c6c 14bc 617d 713d e650 303d 75d8 60bb
00000060: f07d aabd 097c 1abd cad6 e4bc a921 283d
00000070: 4142 2bbd 00d7 973c cf77 5cbd c40a c73c
00000080: 2240 953d 8649 403e 7d8c ee3c 7a12 563d
00000090: 4476 3b3e 9799 cc3d d872 fcba f789 5ebc
000000a0: 47a3 5e3d f55f 4a3d 45c6 f9bd 27ef 05be
000000b0: a31c adbc 50ac c7bc 16f7 cebd 2fb9 9ebd
000000c0: 6782 01bd ecde f33c f34e 0f3c ed25 a3bc
000000d0: 585b d83d 404c 83bd 1535 d5bd b83f 47bd
000000e0: 6fa0 3dbb 7501 953d ec0f a3bd c0f2 43ba
000000f0: 027a 6dbd c19e 85bc c6c3 8b3d 4b77 2ebc
00000100: 5b76 7c3d 0ed0 823d 9c94 c43d eaca 46bc
00000110: c535 dfbd 11a9 bbbc 3fc5 6f3d fe28 053e
00000120: fc06 e13d c38f 3dbd d539 063c 1143 dcbb
00000130: a147 083d 29a0 903b a39b 893d 417d 633d
00000140: f703 b23c 8afc 31bc 9b25 6abd f5fd 02bd
00000150: 65b2 00bd 2b0c cdbc d23a 46bc 4286 b73c
00000160: 5a95 153c f934 c0bd 5528 99bb 8694 03bd
00000170: 2bd9 1ebd caa8 dabc 3ff2 6bbd 3023 10bd
00000180: 5241 8bbd 719c e9bd c263 fcbd b9db b3bc
00000190: c89c 75bd be22 6bbd b2cb 86bd a15a 0c3b
000001a0: 1b96 383d fb02 f3bd 9a98 23be cafd e5bd
000001b0: 0a27 ef3c cc55 31bd 5456 f8bb 4dff 9dbc
000001c0: 77c0 e1bc d696 b8bc bc3a c0bc 6690 b43d
000001d0: df4d c03d 7e04 7f3d 08bf 5d3d 562e 823d
000001e0: 7026 a23d c9ea ffbc 7da6 b43d 02b4 ef3d
000001f0: 85cd 2c3e f2c2 e9bd 5e5b f13a b192 74bd
00000200: 71c5 5fbd cdef bdbc 6879 27bc 4c50 693d
00000210: e727 a1bc 415b 79bd 8e41 0cbd 7ecc 893d
00000220: 8ac8 983d 08f1 ed3c 4b5a 65bd 3949 34bd
00000230: de0a 443d adb5 ea3a 7904 133d dac1 793d
00000240: 8828 f8bc b21d 013d dd37 323c f3a4 2b3c
00000250: bfd2 a0bc 23de 973d 3782 bebb 4b8c 34bd
00000260: e197 0a3d db8d f73d c1de e53d 3339 923c
00000270: 3adb 173c 559b 863c 3bd6 953a 3c43 a93d
00000280: 64ec 97bd edad cbbd eb4e db3b 2e11 eb39
00000290: 54b5 8c3a 61c3 513d e895 8e3c 898c 2c3d
000002a0: aae2 aa3c ab9a d4bd b91f 573d de92 e93c
000002b0: bd6d 30bd 19c5 85bd 5e6c 793d 423f 1c3e
000002c0: 8ce0 7f3d 1f2b 283d 677e 323d 702d e43c
000002d0: 9979 d4bc f0fe 913d d8e5 723d cb15 db3c
000002e0: 004f b83d 7594 df3c 828e e93c c819 4b3d
000002f0: 3d71 11bd 1d37 753d ced9 6bbd f9f6 70bd
00000300: 94ef 4cbd 0939 5f3d 5ee2 56bd 3ff9 91bc
00000310: 93a1 743c f32d 1fbd 3a63 97bd 2be0 bbbd
00000320: 4295 833c 3992 403d 16c9 89bd d0ac 6d3d
00000330: 916c 28bd 77e2 bdbc 7893 a2bc 972b 663d
00000340: 933e 443c f931 e2bd b99f 9c3d 4d93 fe3d
00000350: f360 fd3d 44dd 403d e108 0d3c 8bf8 3abd
00000360: 4279 983d f500 9f3d 081c e03d 0664 013d
00000370: 5424 abbc 0bc2 8c3b 2dd3 523d ff1e 303c
00000380: 731e 443c e8bf 2b3c 61e3 5c3c 96f3 36bd
00000390: 2698 88bc e197 0e3d 2f20 36bc 6530 2fbc
000003a0: afe5 ae3d 5be5 b13d 2adf 57bb 2e3f 20bd
000003b0: 8703 8bbd 9779 66bd ff80 3f3b 1885 e93b
000003c0: 5802 7cbd edf4 84bd 9422 b1bd 61d4 2dbe
000003d0: abbd 24be 9477 313d e6ec b43b cc59 14bd
000003e0: a638 7fbd d604 dd3c ca0f 7dbd 1a8c 88bd
000003f0: de07 ec3d 9cfe ca3d c3da e23c ae31 7abd

conv2.bias f4 [8]
-0.071427986 -0.06673063 0.052497722 0.07925814 -0.029435694 -0.022272207 0.021994174 0.047085576
00000000: d648 92bd 12aa 88bd da07 573d 1752 a23d
00000010: 2023 f1bc 3474 b6bc 202d b43c cedc 403d

fc1.weight f4 [512, 392]
0.029446922 -0.00955369 -0.010236365 0.037662376 -0.02055378 -0.0046677846 -0.042055026 0.012989462
0.013085267 -0.045240354 -0.009559972 0.024823416 -0.01914735 0.028869769 -0.040329237 -0.009744678
-0.00023142516 0.026255881 0.0030816065 -0.048033714 -0.012454425 0.025642645 -0.0042771595 -0.0009075758
0.0013036786 -0.04340186 0.008577512 0.0015819726 -0.023288295 -0.003612478 0.019526387 -0.00043561272
-0.03835074 -0.030896222 0.018198943 -0.030971238 0.015552248 -0.022657678 0.030825665 0.04392805
-0.015181886 0.017343538 -0.0452919 0.04905733 -0.028978394 0.02102484 -0.010562777 0.02257256
0.026240334 -0.0054732687 0.04912807 0.011149073 0.01287662 0.01077863 -0.04524827 -0.00697935
0.049738023 -0.0046492745 0.0058316174 -0.006630104 -0.014055108 -0.034926124 -0.051333785 -0.046660855
-0.03541854 -0.025564933 -0.038731925 -0.005530431 -0.00062217406 -0.0006708616 -0.027436035 0.012723932
0.04967873 -0.02095547 0.050439976 -0.012521029 0.03421933 0.0054777577 0.049215887 -0.012297578
0.049909893 0.030036803 0.0057760933 0.0022315925 0.012795398 -0.038795706 0.048823226 -0.01946063
-0.024617832 0.022949709 -0.0278802 -0.017772852 0.04274991 0.050817404 0.026386729 0.04488692
-0.017290387 0.030924479 -0.0116325645 0.028607197 0.029820172 -0.035023235 -0.03467023 0.029241683
0.01268823 -0.033801805 -0.018734261 -0.0013867192 0.03647625 0.027867168 0.015348552 0.012638216
-0.047153283 -0.034268394 0.047721695 -0.0072387923 0.032722417 -0.037882473 0.035042487 0.031822078
0.005345859 -0.038417768 -0.034302633 -0.033063274 -0.036723167 0.02749886 -0.003144031 0.037106365
0.042448703 0.017230067 -0.04394558 0.034845974 0.021430977 -0.008451209 -0.038486537 0.00049938925
0.011977111 0.016556254 -0.007581295 -0.042549852 -0.032196745 0.006836211 -0.053611718 0.018528579
-0.03626043 -0.03807003 -0.0335646 -0.0005553992 -0.015695132 -0.012205345 0.01929034 -0.030551735
0.005180319 0.0060145347 -0.028883105 0.038176168 -0.044544417 0.01348847 -0.022581596 -0.013174609
0.014343942 -0.039662763 0.012194109 0.04329044 0.011238571 -0.0009728468 -0.047372255 0.024727779
0.03202044 0.003007383 -0.013414995 0.048333753 -0.037461728 -0.03603712 0.04028638 0.011607494
0.0073103057 0.05083771 -0.0026512537 0.039585765 -0.030794924 0.0031240494 -0.029607672 -0.016818844
0.036156185 -0.0075065107 0.050431665 -0.011919729 -0.009183292 -0.01644008 -0.03869211 0.015599163
0.027765093 0.00843119 0.033602174 -0.013658629 0.022104925 -0.0315764 0.035355136 -0.013138765
-0.025229305 -0.024006624 0.048215512 0.008206863 0.005223537 -0.012841662 -0.042314857 0.0069788666
-0.03613797 0.05023452 -0.036535908 -0.035504885 0.00093318033 -0.0027077917 0.03960556 -0.025812613
-0.020498194 -0.007086371 0.0041158586 -0.022390407 -0.053065956 0.01292052 -0.028089367 -0.027656628
-0.03195368 0.016236115 0.0346055 0.030364295 -0.047539487 0.032688353 0.0037211562 0.021984573
-0.031529516 -0.0111833 -0.0017302359 -0.032219537 -0.031405866 0.044002637 -0.01922714 -0.035214264
-0.030092483 -0.0045821313 -0.0056888876 -0.04832985 0.042911336 -0.033042505 -0.04931459 0.027679687
0.01315256 0.032562457 0.0114455735 0.038488965 -0.03260784 -0.021644076 -0.020803845 0.014456848
00000000: ac3a f13c 1587 1cbc 6db6 27bc dd43 1a3d
00000010: 6760 a8bc 37f4 98bb e441 2cbd c1d1 543c
00000020: 9663 563c f34d 39bd 6ea1 1cbc 7a5a cb3c
00000030: e7da 9cbc 4b80 ec3c 4530 25bd 24a8 1fbc
00000040: b8aa 72b9 9316 d73c c7f4 493b 00bf 44bd
00000050: a50d 4cbc 8610 d23c 6a27 8cbb 62ea 6dba
00000060: 32e0 aa3a 26c6 31bd b188 0c3c 315a cf3a
00000070: 18c7 bebc 53bf 6cbb cdf5 9f3c f362 e4b9
00000080: aa15 1dbd 131a fdbc f315 953c 65b7 fdbc
00000090: dbce 7e3c 989c b9bc 1b86 fc3c e6ed 333d
000000a0: 72bd 78bc 0914 8e3c 0084 39bd 57f0 483d
000000b0: 1964 edbc 493c ac3c 7f0f 2dbc 17ea b83c
000000c0: f8f5 d63c 1b59 b3bb 843a 493d 9aaa 363c
000000d0: 75f8 523c da98 303c 4056 39bd 08b3 e4bb
000000e0: 19ba 4b3d f158 98bb 2717 bf3b 5841 d9bb
000000f0: 6547 66bc b20e 0fbd 6043 52bd 741f 3fbd
00000100: 0813 11bd 8d6d d1bc 5ea5 1ebd 9e38 b5bb
00000110: 6519 23ba c3dc 2fba 89c1 e0bc 0a78 503c
00000120: ed7b 4b3d ceaa abbc 269a 4e3d 0125 4dbc
00000130: 9129 0c3d c37e b33b 9996 493d c87b 49bc
00000140: 516e 4c3d be0f f63c 6245 bd3b e93f 123b
00000150: caa3 513c 3fe8 1ebd ddfa 473d e66b 9fbc
00000160: 56ab c9bc 0701 bc3c 0465 e4bc 5f98 91bc
00000170: 881a 2f3d e925 503d fb28 d83c 59db 373d
00000180: 92a4 8dbc 5555 fd3c 8396 3ebc a459 ea3c
00000190: 6f49 f43c 8674 0fbd 5f02 0ebd 418c ef3c
000001a0: 4be2 4f3c c373 0abd 9878 99bc 93c2 b5ba
000001b0: 1f68 153d b049 e43c 7e78 7b3c 8510 4f3c
000001c0: cd23 41bd 045d 0cbd d377 433d 6433 edbb
000001d0: f107 063d a72a 1bbd b688 0f3d de57 023d
000001e0: 512c af3b f35b 1dbd eb80 0cbd 5b6d 07bd
000001f0: 086b 16bd 4a45 e13c 160c 4ebb d8fc 173d
00000200: b1de 2d3d 1226 8d3c 4800 34bd a7ba 0e3d
00000210: 0490 af3c f176 0abc 0fa4 1dbd 72e9 023a
00000220: a53b 443c fba0 873c 836c f8bb c148 2ebd
00000230: bce0 03bd 4b02 e03b f697 5bbd 3fc9 973c
00000240: d185 14bd 52ef 1bbd 097b 09bd 3698 11ba
00000250: 1493 80bc edf8 47bc c606 9e3c a247 fabc
00000260: aabf a93b 9315 c53b 439c ecbc 9d5e 1c3d
00000270: 3574 36bd befe 5c3c 0afd b8bc 51da 57bc
00000280: da02 6b3c 6c75 22bd cdc9 473c 5151 313d
00000290: fc21 383c a506 7fba 6909 42bd e991 ca3c
000002a0: dd27 033d 8417 453b 91ca 5bbc 9df9 453d
000002b0: 7871 19bd a99b 13bd 5503 253d 5c2d 3e3c
000002c0: 4a8b ef3b 343b 503d a8c0 2dbb af24 223d
000002d0: a345 fcbc dabc 4c3b ca8b f2bc acc7 89bc
000002e0: 8218 143d 2df9 f5bb 6f91 4e3d f84a 43bc
000002f0: 8575 16bc 59ad 86bc 9e7b 1ebd a293 7f3c
00000300: 9f73 e33c f922 0a3c 6fa2 093d 71c8 5fbc
00000310: 6315 b53c 4156 01bd 8cd0 103d f943 57bc
00000320: b0ad cebc 8aa9 c4bc a17d 453d 1476 063c
00000330: 342a ab3b d665 52bc 5852 2dbd faae e43b
00000340: 6805 14bd b6c2 4d3d ada6 15bd 926d 11bd
00000350: aca0 743a 3575 31bb 7139 223d f974 d3bc
00000360: d4eb a7bc ca34 e8bb 53de 863b 166c b7bc
00000370: b05b 59bd 97b0 533c ac1b e6bc 2790 e2bc
00000380: dde1 02bd 9a01 853c 7fbe 0d3d 8bbe f83c
00000390: c4b8 42bd 39e4 053d a4de 733b fe18 b43c
000003a0: 1825 01bd 293a 37bc 15c9 e2ba a2f8 03bd
000003b0: 70a3 00bd 1c3c 343d 3c82 9dbc d53c 10bd
000003c0: 8384 f6bc b425 96bb d969 babb 85f5 45bd
000003d0: ccc3 2f3d 9457 07bd 18fe 49bd 83c0 e23c
000003e0: d67d 573c 3660 053d 3786 3b3c 9ba6 1d3d
000003f0: cc8f 05bd eb4e b1bc d36c aabc 6adc 6c3c

fc1.bias f4 [512]
0.045310307 -0.041502483 0.029124932 -0.02545004 -0.042600404 -0.008626078 -0.049583573 0.030051915
0.03671462 -0.021200148 0.0032445071 0.015259718 -0.046938032 0.0039111692 0.008143501 0.013212972
0.0085822055 -0.00019942608 0.014079073 -0.034025434 -0.046396874 -0.039454732 0.047786035 0.025817495
-0.024207847 0.027256275 0.0054110195 -0.0026710513 0.01920512 -0.010213449 -0.0023605558 0.026458278
-0.025926976 -0.02316726 -0.012195596 -0.013139968 -0.047809742 -0.02362537 -0.049044017 0.040499713
-0.043351054 0.03836221 0.02765994 -0.0086728865 0.052648854 -0.006369681 0.03297285 0.002774816
-0.045535862 0.033156775 -0.03164599 0.010765823 0.051224537 0.030328587 -0.0007668242 0.037088543
-0.03525302 0.0042968136 0.03715279 0.009348333 -0.041226458 -0.017268894 -0.0044749044 -0.033120696
-0.021396965 0.05097583 -0.035573773 0.039257087 -0.027147138 -0.00804087 0.008130623 0.05390277
-0.046352148 0.02930381 0.04091568 0.04186263 -0.034114234 0.015194723 -0.040896747 -0.0094435755
-0.0006374134 -0.03051694 0.032320708 -0.045462117 -0.04452217 0.023734251 -0.04845236 0.025993692
0.02059867 -0.04949478 -0.0057727373 0.009072003 0.028486177 -0.029792456 0.031740442 -0.04017219
0.020752871 0.021163458 -0.0031059147 0.01481434 0.011148656 0.010174692 -0.026232155 0.051145565
-0.011800915 -0.035831485 0.03622093 0.035280086 0.014809375 -0.015806954 -0.0155629 -0.01210183
-0.03651077 -0.040014237 -0.004350717 0.047960937 -0.014225989 0.01149735 0.020748695 -0.031033501
0.0014927861 0.034278966 0.049532134 -0.02684193 0.020706385 -0.038912006 0.032682102 -0.045313545
-0.027987573 -0.04414028 0.055368528 -0.006424293 0.008556462 0.0033120015 0.013823474 0.010246117
-0.032327544 -0.028314264 0.022426037 0.036590286 -0.039032687 0.028022407 -0.041750427 -0.0020126065
0.011671911 0.048259843 -0.013438483 -0.035737332 0.00970132 -0.00030626927 0.048419528 -0.024192426
0.031507477 -0.0015448905 -0.034827847 0.02861614 0.024670172 0.0059629357 -0.035737704 -0.03538731
-0.04420115 0.008383581 0.004915216 0.02102091 -0.045801163 -0.02774086 0.030149389 0.03247029
-0.015256227 0.034547277 -0.021359561 0.02832209 -0.03491193 0.0113619575 -0.028517123 0.004935148
0.0018588299 -0.038498785 0.027790112 0.0304887 0.026735619 0.02428023 0.0010890913 -0.04297766
0.042027712 -0.01129824 0.002906579 -0.016386677 0.034077615 -0.04051044 -0.03987555 -0.009288655
0.047293294 0.012263151 -0.004475389 0.019985678 0.036314934 0.0204707 -0.024760718 0.051720116
0.016647128 0.039495554 -0.0138005745 0.0019098371 -0.03955336 -0.017146342 0.046386674 0.04349467
-0.009587553 -0.007764504 -0.02293273 0.0011930468 0.017366538 0.008708131 0.031817306 -0.053565875
-0.041848157 0.020065017 -0.021101354 -0.0022125717 0.050161704 -0.01556672 -0.009970868 -0.005220273
-0.016154833 -0.0056529376 0.020946123 -0.0126956375 0.010234732 -0.047117613 -0.033099804 0.010811868
-0.010973056 0.0020695655 -0.0063699204 -0.0022488374 -0.0316096 -0.018711478 0.03555383 0.014231857
0.006886581 -0.006818301 0.016144078 0.048919618 -0.008949241 -0.043274198 0.0114775505 0.03551075
0.049749292 -0.018507188 -0.014268544 -0.012392726 -0.022904636 0.018991468 -0.0046540345 0.0375084
00000000: 4d97 393d 82fe 29bd 6997 ee3c 9a7c d0bc
00000010: c37d 2ebd 6554 0dbc 2518 4bbd 6f2f f63c
00000020: 1262 163d efab adbc cca1 543b e503 7a3c
00000030: 1842 40bd 4429 803b 526c 053c 397b 583c
00000040: 619c 0c3c 081d 51b9 eaab 663c 415e 0bbd
00000050: a60a 3ebd 499b 21bd 4abb 433d 367f d33c
00000060: 894f c6bc 8d48 df3c ec4e b13b ce0c 2fbb
00000070: 0e54 9d3c 4f56 27bc 8eb3 1abb 08bf d83c
00000080: cf64 d4bc 44c9 bdbc 09d0 47bc 0549 57bc
00000090: 26d4 43bd fe89 c1bc 61e2 48bd 07e3 253d
000000a0: e090 31bd b121 1d3d 1997 e23c b918 0ebc
000000b0: 53a6 573d c2b8 d0bb 8a0e 073d b0d9 353b
000000c0: d083 3abd 66cf 073d 3a9f 01bd 2263 303c
000000d0: d2d0 513d a873 f83c b304 49ba 28ea 173d
000000e0: 7865 10bd 49cc 8c3b 862d 183d c029 193c
000000f0: 13dd 28bd 7f77 8dbc 38a2 92bb 91a9 07bd
00000100: b048 afbc 08cc 503d ceb5 11bd 0acc 203d
00000110: ad63 debc dabd 03bc 4e36 053c 27c9 5c3d
00000120: c0db 3dbd 8b0e f03c 3397 273d 2678 2b3d
00000130: 5ebb 0bbd 4af3 783c 5983 27bd 3ab9 1abc
00000140: 1718 27ba a9fe f9bc b862 043d 7c36 3abd
00000150: e15c 36bd 556e c23c fb75 46bd b9f0 d43c
00000160: 8bbe a83c 0abb 4abd 3b29 bdbb bda2 143c
00000170: d85b e93c 4f0f f4bc 4402 023d 988b 24bd
00000180: ed01 aa3c fd5e ad3c 9a8c 4bbb d8b7 723c
00000190: daa8 363c c0b3 263c d1e4 d6bc 037e 513d
000001a0: a058 41bc 09c4 12bd 665c 143d da81 103d
000001b0: 05a3 723c 967d 81bc 89fb 7ebc c146 46bc
000001c0: 518c 15bd f8e5 23bd 7690 8ebb b072 443d
000001d0: 1f14 69bc 625f 3c3c 2bf9 a93c f839 febc
000001e0: 97a9 c33a 1a68 0c3d 35e2 4a3d 9be3 dbbc
000001f0: 70a0 a93c 3262 1fbd abdd 053d b29a 39bd
00000200: 3246 e5bc 70cc 34bd 1cca 623d e082 d2bb
00000210: 6730 0c3c 2a0e 593b da7b 623c 54df 273c
00000220: e369 04bd 51f3 e7bc cfb6 b73c b2df 153d
00000230: bde0 1fbd 3f8f e53c 7f02 2bbd efe5 03bb
00000240: 8b3b 3f3c 1dac 453d 152d 5cbc 4f61 12bd
00000250: 49f2 1e3c c492 a0b9 8e53 463d 322f c6bc
00000260: fc0d 013d ec7d caba a5a7 0ebd 656c ea3c
00000270: 1a19 ca3c bb64 c33b b361 12bd 49f2 10bd
00000280: 440c 35bd 4a5b 093c d20f a13b 0b34 ac3c
00000290: 009a 3bbd cd40 e3bc dafb f63c 91ff 043d
000002a0: 41f5 79bc 7281 0d3d 3ffa aebc ba03 e83c
000002b0: d0ff 0ebd 8127 3a3c be9c e9bc 06b7 a13b
000002c0: fba3 f33a e7b0 1dbd 17a8 e33c 70c3 f93c
000002d0: a804 db3c 55e7 c63c d7bf 8e3a 5809 30bd
000002e0: 4025 2c3d 411c 39bc 4e7c 3e3b 5a3d 86bc
000002f0: f894 0b3d 46ee 25bd 8b54 23bd 712f 18bc
00000300: 9db6 413d 62eb 483c 49a6 92bb 01b9 a33c
00000310: f8be 143d 2bb2 a73c fdd6 cabc 79d8 533d
00000320: 8f5f 883c 17c6 213d ce1b 62bc 8053 fa3a
00000330: b402 22bd 7c76 8cbc f4ff 3d3d 7827 323d
00000340: 1d15 1dbc 616d febb 6cdd bbbc 0260 9c3a
00000350: 4544 8e3c 8cac 0e3c dd52 023d e467 5bbd
00000360: f968 2bbd 645f a43c bfdc acbc cb00 11bb
00000370: 5c76 4d3d 8e0b 7fbc da5c 23bc d30e abbb
00000380: 2457 84bc 473c b9bb 3497 ab3c 5d01 50bc
00000390: 94af 273c 66fe 40bd a993 07bd 4324 313c
000003a0: 55c8 33bc 8ca1 073b c4ba d0bb 3b61 13bb
000003b0: 1179 01bd d048 99bc e5a0 113d bc2c 693c
000003c0: d4a8 e13b 0e6c dfbb 9640 843c f05f 483d
000003d0: d69f 12bc 4940 31bd 560c 3c3c b873 113d
000003e0: eac5 4b3d 639c 97bc 9cc6 69bc dc0a 4bbc
000003f0: 81a2 bbbc ff93 9b3c df80 98bb 68a2 193d

fc2.weight f4 [10, 512]
-0.051948704 -0.11293184 0.021991363 0.107277155 -0.12985611 0.015439768 0.09287153 0.057313364
0.051726624 0.07294408 -0.017729864 0.015567576 0.065833546 0.08174712 0.039305594 0.00032845017
0.004767217 -0.009476367 -0.03533251 0.03523317 -0.061963767 -0.0138750365 0.073038094 -0.011077058
-0.026599146 0.09278865 -0.06757537 -0.039351393 0.050618846 -0.07467642 0.014891021 -0.028074088
-0.08458235 0.02349879 0.052020475 -0.021999875 0.01041621 -0.035752628 0.020470504 -0.022029279
0.052981585 0.036866654 0.026823832 0.055986356 0.026129013 0.04785836 -0.04941199 -0.015050387
-0.119875625 0.09101906 -0.009093277 0.078281574 -0.03711594 -0.026187293 0.08015231 0.009132145
0.051473375 -0.09668346 0.053596575 -0.06201051 -0.092942305 0.042738527 -0.015846722 0.03309197
-0.05126918 0.035832375 -0.03227848 -0.09916044 -0.008283431 -0.04464777 -0.07422404 0.032686036
0.00040238033 -0.058247026 0.100109525 0.026032692 0.0035402332 0.11825673 -0.007922658 -0.04828861
0.022480978 0.07743596 -0.0518719 0.036651067 -0.040060792 0.034892716 0.08389107 0.07924216
-0.15088177 0.052935224 0.035147924 -0.023186455 -0.027377086 0.032127634 -0.07161914 -0.039618284
-0.08737469 -0.06516329 0.065283954 0.07118207 0.03753955 -0.06485368 0.027621511 0.062104866
-0.030166663 -0.028135171 -0.061281566 -0.08285454 0.012356612 0.03218128 0.037222937 0.023168515
0.04152362 -0.008948607 0.082115956 -0.015164545 0.05820446 0.014028708 0.021413181 0.061212815
-0.058210954 -0.06190724 -0.0227223 -0.013448488 -0.016466588 -0.014436096 -0.073421225 -0.053566013
0.05337715 0.013036279 -0.04505814 0.08049452 0.009748583 -0.021092711 0.026950335 -0.028051525
-0.010745125 -0.07501713 0.059181623 -0.012193918 0.020448217 -0.08178477 -0.012793146 0.054796293
-0.001123502 0.06435036 -0.059007227 0.018149033 0.045028895 0.029337466 0.015100856 0.012363872
0.08986548 0.008810391 0.08955421 0.08629747 -0.0994727 -0.008019381 -0.06545556 -0.02871571
-0.062336214 0.02101466 0.026970183 0.09570497 0.098560676 -0.037406705 0.061217595 -0.01294548
0.01918878 -0.005965994 0.01404821 0.02893294 0.11584458 0.012396928 -0.034954462 -0.022682887
0.015343601 -0.03282322 -0.012716915 -0.08901723 -0.025418462 -0.0037135722 -0.07191326 0.024740694
0.04498713 0.06517484 -0.04312292 0.03715297 -0.0022049083 -0.020233726 -0.0034464775 0.0684636
-0.10947263 -0.06882894 0.008032655 -0.005396617 -0.04826343 0.020218754 0.0152077265 -0.030815085
-0.072552085 0.08797324 0.07230408 -0.08363325 0.03610958 0.012216312 0.06812141 0.013101762
0.094919555 -0.07326152 -0.05629969 0.020161256 0.006963573 -0.07921066 -0.020828556 0.06263498
0.01504829 0.0040056887 -0.023403354 0.026636476 0.003895181 0.0015774021 -0.07058446 0.058933876
0.022373086 -0.08468612 -0.080177955 0.048158824 -0.009224428 -0.04529649 -0.03775308 -0.071133584
0.026007244 0.103672445 0.0031958236 -0.04688478 -0.05190143 -0.06817243 0.08251001 -0.08316168
-0.01064193 -0.010517572 -0.054319877 0.044111423 -0.094058365 -0.032954343 -0.0380813 -0.037959382
-0.05249663 0.03261435 0.14850831 -0.01725655 -0.041828997 0.016976349 -0.11518516 0.036338706
00000000: 2ac8 54bd cf48 e7bd 3b27 b43c 20b4 db3d
00000010: 00f9 04be 15f7 7c3c 6e33 be3d 6bc1 6a3d
00000020: 4cdf 533d b563 953d 383e 91bc 250f 7f3c
00000030: bdd3 863d 096b a73d e7fe 203d d633 ac39
00000040: 5136 9c3b c442 1bbc d2b8 10bd a850 103d
00000050: b8cd 7dbd 1f54 63bc ff94 953d 8c7c 35bc
00000060: 74e6 d9bc fa07 be3d f564 8abd ed2e 21bd
00000070: b555 4f3d f3ef 98bd 78f9 733c a1fb e5bc
00000080: 8339 adbd 8980 c03c 6c13 553d 1539 b4bc
00000090: c0a8 2a3c 5971 12bd c2b1 a73c bf76 b4bc
000000a0: 3803 593d 7d01 173d a7bd db3c f351 653d
000000b0: 830c d63c 2107 443d 3a64 4abd e695 76bc
000000c0: 5a81 f5bd 3368 ba3d f8fb 14bc 1752 a03d
000000d0: e206 18bd bc86 d6bc e526 a43d fe9e 153c
000000e0: bfd5 523d fa01 c6bd 1588 5b3d bcfe 7dbd
000000f0: 8958 bebd 980e 2f3d fcd0 81bc 728b 073d
00000100: a2ff 51bd f8c4 123d 7036 04bd a114 cbbd
00000110: 3ab7 07bc 94e0 36bd c602 98bd cbe1 053d
00000120: 93f6 d239 6f94 6ebd 3906 cd3d 8342 d53c
00000130: 4203 683b 9630 f23d 09ce 01bc 47ca 45bd
00000140: 072a b83c bf96 9e3d a177 54bd 6e1f 163d
00000150: c916 24bd aaeb 0e3d 15cf ab3d b749 a23d
00000160: c080 1abe 9bd2 583d 45f7 0f3d 85f1 bdbc
00000170: e945 e0bc 4498 033d 0ead 92bd c846 22bd
00000180: 80f1 b2bd 5574 85bd 98b3 853d e8c7 913d
00000190: 12c3 193d 02d2 84bd 8246 e23c ac61 7e3d
000001a0: 1420 f7bc bb7b e6bc 6102 7bbd a4af a9bd
000001b0: 6373 4a3c 85d0 033d 1477 183d e6cb bd3c
000001c0: ac14 2a3d 2e9d 12bc 692c a83d b674 78bc
000001d0: cd67 6e3d abd8 653c b26a af3c 4aba 7a3d
000001e0: 9c6e 6ebd 7292 7dbd 1e24 babc 0c57 5cbc
000001f0: f0e4 86bc 6085 6cbc de5d 96bd 0968 5bbd
00000200: 00a2 5a3d 1e96 553c e28e 38bd 50da a43d
00000210: 85b8 1f3c 9fca acbc f3c6 dc3c 50cc e5bc
00000220: 520c 30bc 95a2 99bd 6e68 723d 00c9 47bc
00000230: 0583 a73c c67e a7bd 589a 51bc 1472 603d
00000240: 7942 93ba 1fca 833d 90b1 71bd 48ad 943c
00000250: 3870 383d 2055 f03c 9569 773c d691 4a3c
00000260: 650b b83d 7559 103c 3368 b73d babc b03d
00000270: 58b8 cbbd b963 03bc 910d 86bd 353d ebbc
00000280: 4254 7fbd f026 ac3c 93f0 dc3c f800 c43d
00000290: 2eda c93d c637 19bd 4dbf 7a3d 4719 54bc
000002a0: ca31 9d3c 637e c3bb 772a 663c c604 ed3c
000002b0: ec3f ed3d 7c1c 4b3c 692c 0fbd 76d1 b9bc
000002c0: ba63 7b3c a471 06bd 9c5a 50bc aa4e b6bd
000002d0: 613a d0bc 675f 73bb 4247 93bd ffac ca3c
000002e0: 6d44 383d 637a 853d a9a1 30bd b62d 183d
000002f0: 3980 10bb 33c1 a5bc 4cde 61bb a536 8c3d
00000300: 3033 e0bd 30f6 8cbd 669b 033c 1bd6 b0bb
00000310: e0af 45bd cda1 a53c d429 793c eb6f fcbc
00000320: 3096 94bd 502b b43d 2914 943d e947 abbd
00000330: a4e7 133d ed26 483c 3d83 8b3d c6a8 563c
00000340: 2f65 c23d 230a 96bd 819a 66bd 3829 a53c
00000350: af2e e43b 3339 a2bd a6a0 aabc c546 803d
00000360: 1a8d 763c 2742 833b 64b8 bfbc bd34 da3c
00000370: 4b46 7f3b d5c0 ce3a 968e 90bd a664 713d
00000380: c347 b73c eb6f adbd 5734 a4bd 3042 453d
00000390: 0e22 17bc d088 39bd f9a2 1abd 7cae 91bd
000003a0: 250d d53c 3852 d43d 0671 513b 410a 40bd
000003b0: 9896 54bd fd9d 8bbd 02fb a83d ac50 aabd
000003c0: 7d5b 2ebc e551 2cbc 857e 5ebd 2eae 343d
000003d0: aca1 c0bd 22fb 06bd 23fb 1bbd 4c7b 1bbd
000003e0: b506 57bd a096 053d 9012 183e 9c5d 8dbc
000003f0: e254 2bbd fc11 8b3c 32e6 ebbd e5d7 143d

fc2.bias f4 [10]
-0.04868347 0.09033009 -0.038502246 0.0010004466 -0.053659827 0.041877165 -0.042096853 0.024255898
0.0017033954 -0.007705881
00000000: 5168 47bd fbfe b83d 88b4 1dbd 6b21 833a
00000010: 68ca 5bbd 6487 2b3d c06d 2cbd 4eb4 c63c
00000020: 7744 df3a 9d81 fcbb

bn1.weight f4 [4]
0.9329834 0.9329962 1.138211 0.9838847
00000000: 00d8 6e3f d7d8 6e3f e6b0 913f dedf 7b3f

bn1.bias f4 [4]
-0.045777135 0.0771043 -0.016299408 -0.07042223
00000000: ce80 3bbd dce8 9d3d 5686 85bc 8839 90bd

bn1.running_mean f4 [4]
-0.03430649 -0.027408497 -0.079444215 0.122315235
00000000: f684 0cbd c987 e0bc a6b3 a2bd 6980 fa3d

bn1.running_var f4 [4]
0.4979859 1.0382085 1.3376889 0.77602017
00000000: 02f8 fe3e 04e4 843f 6439 ab3f 42a9 463f

bn2.weight f4 [8]
1.4728003 1.4442043 1.7920868 1.5421404 1.5338875 1.8034297 1.4854192 1.8720031
00000000: b884 bc3f b0db b83f 1a63 e53f db64 c53f
00000010: 6d56 c43f c9d6 e63f 3722 be3f cc9d ef3f

bn2.bias f4 [8]
0.11222723 0.07538082 0.20559783 0.09951147 0.07170555 0.07708906 0.14648801 0.123499975
00000000: 64d7 e53d 4261 9a3d 3d88 523e abcc cb3d
00000010: 5cda 923d dee0 9d3d f400 163e 8eed fc3d

bn2.running_mean f4 [8]
-0.0026461447 0.1700989 0.5079862 0.010719206 -0.14067891 -0.46930686 -0.18294144 -0.06725995
00000000: f16a 2dbb 682e 2e3e 620b 023f 9c9f 2f3c
00000010: 220e 10be fd48 f0be 0055 3bbe 96bf 89bd

bn2.running_var f4 [8]
0.10162628 0.27086663 0.27591333 0.1990454 0.16635032 0.16451418 0.19403929 0.2024888
00000000: 7021 d03d 08af 8a3e 8344 8d3e 8fd2 4b3e
00000010: bd57 2a3e 6876 283e 3cb2 463e 3959 4f3e
